VGG19
 out = out.view(out.size(0), -1) = torch.Size([2, 512])
----------------------------------------------------------------------------------------
   Parent Layers       Layer (type)          Input Shape         Param #     Tr. Param #
========================================================================================
             VGG           Conv2d-1       [2, 3, 32, 32]           1,792           1,792
             VGG      BatchNorm2d-2      [2, 64, 32, 32]             128             128
             VGG             ReLU-3      [2, 64, 32, 32]               0               0
             VGG           Conv2d-4      [2, 64, 32, 32]          36,928          36,928
             VGG      BatchNorm2d-5      [2, 64, 32, 32]             128             128
             VGG             ReLU-6      [2, 64, 32, 32]               0               0
             VGG        MaxPool2d-7      [2, 64, 32, 32]               0               0
             VGG           Conv2d-8      [2, 64, 16, 16]          73,856          73,856
             VGG      BatchNorm2d-9     [2, 128, 16, 16]             256             256
             VGG            ReLU-10     [2, 128, 16, 16]               0               0
             VGG          Conv2d-11     [2, 128, 16, 16]         147,584         147,584
             VGG     BatchNorm2d-12     [2, 128, 16, 16]             256             256
             VGG            ReLU-13     [2, 128, 16, 16]               0               0
             VGG       MaxPool2d-14     [2, 128, 16, 16]               0               0
             VGG          Conv2d-15       [2, 128, 8, 8]         295,168         295,168
             VGG     BatchNorm2d-16       [2, 256, 8, 8]             512             512
             VGG            ReLU-17       [2, 256, 8, 8]               0               0
             VGG          Conv2d-18       [2, 256, 8, 8]         590,080         590,080
             VGG     BatchNorm2d-19       [2, 256, 8, 8]             512             512
             VGG            ReLU-20       [2, 256, 8, 8]               0               0
             VGG          Conv2d-21       [2, 256, 8, 8]         590,080         590,080
             VGG     BatchNorm2d-22       [2, 256, 8, 8]             512             512
             VGG            ReLU-23       [2, 256, 8, 8]               0               0
             VGG          Conv2d-24       [2, 256, 8, 8]         590,080         590,080
             VGG     BatchNorm2d-25       [2, 256, 8, 8]             512             512
             VGG            ReLU-26       [2, 256, 8, 8]               0               0
             VGG       MaxPool2d-27       [2, 256, 8, 8]               0               0
             VGG          Conv2d-28       [2, 256, 4, 4]       1,180,160       1,180,160
             VGG     BatchNorm2d-29       [2, 512, 4, 4]           1,024           1,024
             VGG            ReLU-30       [2, 512, 4, 4]               0               0
             VGG          Conv2d-31       [2, 512, 4, 4]       2,359,808       2,359,808
             VGG     BatchNorm2d-32       [2, 512, 4, 4]           1,024           1,024
             VGG            ReLU-33       [2, 512, 4, 4]               0               0
             VGG          Conv2d-34       [2, 512, 4, 4]       2,359,808       2,359,808
             VGG     BatchNorm2d-35       [2, 512, 4, 4]           1,024           1,024
             VGG            ReLU-36       [2, 512, 4, 4]               0               0
             VGG          Conv2d-37       [2, 512, 4, 4]       2,359,808       2,359,808
             VGG     BatchNorm2d-38       [2, 512, 4, 4]           1,024           1,024
             VGG            ReLU-39       [2, 512, 4, 4]               0               0
             VGG       MaxPool2d-40       [2, 512, 4, 4]               0               0
             VGG          Conv2d-41       [2, 512, 2, 2]       2,359,808       2,359,808
             VGG     BatchNorm2d-42       [2, 512, 2, 2]           1,024           1,024
             VGG            ReLU-43       [2, 512, 2, 2]               0               0
             VGG          Conv2d-44       [2, 512, 2, 2]       2,359,808       2,359,808
             VGG     BatchNorm2d-45       [2, 512, 2, 2]           1,024           1,024
             VGG            ReLU-46       [2, 512, 2, 2]               0               0
             VGG          Conv2d-47       [2, 512, 2, 2]       2,359,808       2,359,808
             VGG     BatchNorm2d-48       [2, 512, 2, 2]           1,024           1,024
             VGG            ReLU-49       [2, 512, 2, 2]               0               0
             VGG          Conv2d-50       [2, 512, 2, 2]       2,359,808       2,359,808
             VGG     BatchNorm2d-51       [2, 512, 2, 2]           1,024           1,024
             VGG            ReLU-52       [2, 512, 2, 2]               0               0
             VGG       MaxPool2d-53       [2, 512, 2, 2]               0               0
             VGG       AvgPool2d-54       [2, 512, 1, 1]               0               0
             VGG          Linear-55             [2, 512]           5,130           5,130
========================================================================================
Total params: 20,040,522
Trainable params: 20,040,522
Non-trainable params: 0
Batch size: 2
----------------------------------------------------------------------------------------


========================================== Hierarchical Summary ==========================================

VGG(
…
