ResNet18
----------------------------------------------------------------------------------------
   Parent Layers       Layer (type)          Input Shape         Param #     Tr. Param #
========================================================================================
          ResNet           Conv2d-1       [1, 3, 32, 32]           1,728           1,728
          ResNet      BatchNorm2d-2      [1, 64, 32, 32]             128             128
          ResNet       BasicBlock-3      [1, 64, 32, 32]          73,984          73,984
          ResNet       BasicBlock-4      [1, 64, 32, 32]          73,984          73,984
          ResNet       BasicBlock-5      [1, 64, 32, 32]         230,144         230,144
          ResNet       BasicBlock-6     [1, 128, 16, 16]         295,424         295,424
          ResNet       BasicBlock-7     [1, 128, 16, 16]         919,040         919,040
          ResNet       BasicBlock-8       [1, 256, 8, 8]       1,180,672       1,180,672
          ResNet       BasicBlock-9       [1, 256, 8, 8]       3,673,088       3,673,088
          ResNet      BasicBlock-10       [1, 512, 4, 4]       4,720,640       4,720,640
          ResNet          Linear-11             [1, 512]           5,130           5,130
========================================================================================
Total params: 11,173,962
Trainable params: 11,173,962
Non-trainable params: 0
Batch size: 1
----------------------------------------------------------------------------------------


============================================== Hierarchical Summary ==============================================
…
